소스코드/Pytorch/03-파이토치로_구현하는_ANN/model.pt (torch, 1815 bytes, 3 tensors)

linear_1.weight f4 [5, 2]
-1.3661766 -1.4085402 -1.0734481 -1.1069816 1.6370174 1.5572656 -0.2746035 -0.2897226
-1.1215453 -1.1560946
00000000: e0de aebf 0c4b b4bf bf66 89bf 93b1 8dbf
00000010: c989 d13f 7b54 c73f d498 8cbe 8556 94be
00000020: cc8e 8fbf e8fa 93bf

linear_1.bias f4 [5]
-0.3209518 -0.2519189 -0.23467052 1.4663355 -0.2637181
00000000: cb53 a4be 84fb 80be 784d 70be e2b0 bb3f
00000010: 0f06 87be

linear_2.weight f4 [1, 5]
-1.8146929 -1.3833561 -2.1694796 1.509271 -1.531739
00000000: db47 e8bf d011 b1bf c1d8 0ac0 cb2f c13f
00000010: 0610 c4bf
